Assets/Models/model.onnx (onnx, 319065 bytes, 7 tensors)

StatefulPartitionedCall/sequential_1/dense_1_2/Cast/ReadVariableOp:0 f4 [64, 1]
0	0x3e5f73ad	0.2182147
1	0x3e8fa212	0.28053337
2	0xbe024022	-0.12719777
3	0xbdf76e25	-0.12081555
4	0x3c825c12	0.015913043
5	0xbe904957	-0.28180954
6	0xbe0af088	-0.13568318
7	0x3db70e68	0.08938295
8	0x3e2537cd	0.16134568
9	0x3e5cc35c	0.21558899
10	0x3e594c0c	0.21220416
11	0x3e691b30	0.22764277
12	0x3dd35379	0.103186555
13	0x3e900bbc	0.28133953
14	0xbe320c84	-0.17387587
15	0x3e32913a	0.17438212
16	0xbe2b5a1c	-0.16733593
17	0xbe82cb50	-0.2554574
18	0x3e157bb5	0.14597972
19	0x3d8538c4	0.06504968
20	0x3e80b1a2	0.25135523
21	0x3dfc4ec6	0.12319712
22	0x3e7a7492	0.2445853
23	0x3dc67515	0.096903004
24	0x3d009c79	0.031399224
25	0x3e11e535	0.14247592
26	0x3e2caf20	0.1686368
27	0x3e9a433f	0.3012943
28	0x3e492335	0.19642337
29	0x3e151bae	0.1456134
30	0xbe1b4313	-0.15162306
31	0xbe93825b	-0.2881039
32	0xbe5d60f7	-0.2161902
33	0xbbaa69c2	-0.0052005956
34	0x3e95da05	0.29267898
35	0xbe2e4130	-0.17017055
36	0xbe683662	-0.22676995
37	0x3de53c56	0.11193149
38	0x3e940cbd	0.2891597
39	0x3e642518	0.22279775
40	0x3d59c194	0.053163126
41	0xbdad4a2e	-0.08461414
42	0x3d4c44bb	0.049870234
43	0xbe7c2b3c	-0.24625868
44	0xbc649d84	-0.01395357
45	0x3e5183f2	0.2046049
46	0x3e8d7fc9	0.27636555
47	0xbb706d93	-0.0036686405
48	0xbd7012aa	-0.05861155
49	0xbe93a763	-0.28838643
50	0x3ea09091	0.31360295
51	0xbe5699b2	-0.20957068
52	0x3e8e0468	0.27737737
53	0x3e341565	0.17586286
54	0xbe306cd0	-0.17229009
55	0x3e6c1a14	0.23056823
56	0xbe903c14	-0.28170836
57	0xbe58dd1f	-0.21178101
58	0x3dd549d4	0.10414472
59	0xbe2856a7	-0.16439305
60	0x3e955157	0.2916362
61	0xbe5d1435	-0.2158974
62	0xbd68eaa6	-0.056864403
63	0xbe58fdc2	-0.21190551

StatefulPartitionedCall/sequential_1/dense_1/Cast/ReadVariableOp:0 f4 [1152, 64]
0	0xbcef5235	-0.029214004
1	0xbd183442	-0.037159212
2	0x3b78b590	0.0037950017
3	0xbd6ba47b	-0.057529908
4	0xbd1be0f5	-0.038056333
5	0xbd5a469b	-0.05328999
6	0xbd524d58	-0.051343292
7	0x3cf05a82	0.029340032
8	0x3da75100	0.081697464
9	0x3c04d304	0.008106951
10	0xbc80f322	-0.015740935
11	0x3d095b50	0.033534348
12	0x3d48eaba	0.049051978
13	0x3d9d588c	0.076829046
14	0x3cc6977d	0.024242157
15	0x3d422de8	0.04740706
16	0x3cde0d87	0.02710606
17	0x3c259ef3	0.010108697
18	0x3d0a4643	0.033758413
19	0x3d5ba568	0.05362454
20	0xbd1afc01	-0.037837986
21	0x3cad4db6	0.02115522
22	0x3d86e30d	0.06586275
23	0x3c90c5f1	0.01767251
24	0xbd3bf17f	-0.045884605
25	0x3d07c731	0.033148948
26	0xbcb0b0ef	-0.021568744
27	0x3d5009a2	0.050790437
28	0xba505f0f	-0.0007948735
29	0x3c3742f0	0.011185393
30	0xbcec7701	-0.02886534
31	0xbd0ccb31	-0.034373466
32	0x3c9af507	0.018915666
33	0xbd2e0cf5	-0.042492826
34	0xbd0b818c	-0.034059092
35	0xbd77b2f0	-0.060473382
36	0x3c300ddf	0.010745495
37	0xbd3435ba	-0.04399655
38	0x3d340172	0.04394669
39	0x3d89175a	0.06693907
40	0x3da3d771	0.080000766
41	0xbd2db2e0	-0.042406917
42	0x3db09780	0.08622646
43	0x3cb44d68	0.022009566
44	0x3abd681e	0.0014450585
45	0x3d168a74	0.036753133
46	0xbd4b3a5c	-0.049616203
47	0x3d396444	0.045261636
48	0xbd9d4e4e	-0.07680951
49	0xbd73c545	-0.059514303
50	0xbb03436b	-0.0020029198
51	0x3c84f045	0.01622785
52	0xba40cf8d	-0.0007355146
53	0xbd2d7a40	-0.042352915
54	0xb9f14653	-0.00046019498
55	0x3d359c56	0.044338547
56	0xbcd46dd5	-0.025931278
57	0xbbc55c4c	-0.0060229655
58	0xbbf25790	-0.007395692
59	0x3cd10a5c	0.025517635
60	0x3d9128b9	0.07087845
61	0xbc6c44cd	-0.0144207
62	0xbd359d32	-0.044339366
63	0x3b9478f0	0.0045310184
64	0xbc5e7b60	-0.01357922
65	0xbd88a258	-0.066715896
66	0x3b814c80	0.003945887
67	0xbbd9a240	-0.006641656
68	0x3d86f2b8	0.06589264
69	0xbd9428b9	-0.0723433
70	0xbd7a48be	-0.06110453
71	0xbd0ae98a	-0.033914126
72	0x3d968f59	0.0735156
73	0x3d982716	0.0742933
74	0x3d12919d	0.0357834
75	0x3d0c0d4f	0.03419238
76	0xbd2bee8d	-0.041975547
77	0xbc214e2d	-0.009845299
78	0x3d26277a	0.04056499
79	0x3c10aea1	0.008830697
80	0xbd133fa7	-0.035949375
81	0x3d281eb4	0.041044906
82	0xbd304fe1	-0.04304493
83	0xbc95438b	-0.018220684
84	0x3c757c80	0.014983296
85	0xbd50f608	-0.051015884
86	0xbcf1c12e	-0.02951106
87	0x3da928ae	0.08259712
88	0x3d64491d	0.05573379
89	0xbce82d22	-0.028341834
90	0x3da6bed7	0.081418686
91	0x3bfe98e7	0.007769692
92	0xbbd9cb01	-0.0066465144
93	0xbd7a632b	-0.06112973
94	0xbd9482be	-0.072514996
95	0xbd5892b7	-0.052874293
96	0x3d4ce8b2	0.050026603
97	0x3ccbb46a	0.024866302
98	0x3d5aab70	0.05338615
99	0x3d571d66	0.05251827
100	0x3d82d0fb	0.06387516
101	0xbbc56ce7	-0.006024945
102	0xbb2b4cfe	-0.002613842
103	0x3d7cb74b	0.06169824
104	0x3d106e3c	0.035261378
105	0xbc878a30	-0.016545385
106	0x3cd3adc2	0.02583969
107	0xbd18318d	-0.03715663
108	0x3ccdd66a	0.025126655
109	0x3d8859a2	0.06657721
110	0x3c441639	0.011968189
111	0x3d7565d6	0.05991157
112	0x3bfebefb	0.0077742315
113	0x3b41c880	0.002956897
114	0x3bed4fb0	0.0072421655
115	0xbd6ea4fa	-0.058262803
116	0x3c89e5a0	0.016833127
117	0xbcf2101b	-0.029548695
118	0x3d72af28	0.059249073
119	0x3d2a5e56	0.041593872
120	0xbd75af2f	-0.05998152
121	0xbd836473	-0.064156435
122	0xbd180436	-0.03711339
123	0x3cf95808	0.030437484
124	0xbd5ffe5b	-0.05468593
125	0x3c45a970	0.012064323
126	0xbd6dcb84	-0.058055416
127	0xbd7ceb73	-0.06174798
128	0xbbefb8a0	-0.00731571
129	0x3d637a06	0.055536292
130	0xbd3432ca	-0.04399375
131	0xbcc09316	-0.023507636
132	0xbc6ebe30	-0.014571711
133	0xbc1a65e8	-0.00942371
134	0x3c690890	0.014223233
135	0xbd8e3d2a	-0.0694526
136	0xbd77d112	-0.06050212
137	0x3b25eec0	0.0025319308
138	0xbd7606bf	-0.060065027
139	0xbd665bc0	-0.056239843
140	0x3ccd7970	0.02508232
141	0xbcdda210	-0.027054816
142	0xbd3115c8	-0.043233663
143	0x3d8dbe69	0.069210835
144	0x3d829d8f	0.06377708
145	0xbd8cd826	-0.068771645
146	0x3cf40d3c	0.029791467
147	0xbbb7f970	-0.005614452
148	0xbb3dcca0	-0.0028961077
149	0xbd5c87a5	-0.0538403
150	0xbd8e96fd	-0.069623925
151	0x3d89dda9	0.067317314
152	0x3d2f719a	0.04283295
153	0xbd402de7	-0.046918776
154	0xbd499124	-0.049210683
155	0xbd745ca1	-0.05965865
156	0xbd6f9655	-0.058492977
157	0xbc55aae0	-0.013041228
158	0x3b4c7d60	0.003120266
159	0xbcf99524	-0.030466624
160	0x3d0cd428	0.034382015
161	0x3d629036	0.05531331
162	0xbd0bd76b	-0.034140985
163	0xbd2f5912	-0.042809553
164	0x3cea33f0	0.028589219
165	0x3cd27e94	0.025695123
166	0xbbb95fb0	-0.005657159
167	0xbd19c56b	-0.037541788
168	0xbc0c88c4	-0.008577529
169	0x3d2ec616	0.04266938
170	0x3d249a44	0.04018618
171	0xbd33ec32	-0.043926425
172	0xbc1a1dc4	-0.009406511
173	0x3c6e7100	0.0145533085
174	0xbd37c6b8	-0.044867247
175	0x3d852a21	0.06502176
176	0x3c997ee0	0.018737257
177	0x3d146eb8	0.036238402
178	0x3c583b60	0.01319775
179	0x3ccc7790	0.024959356
180	0x3bf7f3d0	0.0075669065
181	0x3a2be580	0.00065573305
182	0x3d639646	0.055563234
183	0xbd868719	-0.065687366
184	0x3d8b6047	0.06805473
185	0xbd7e45d7	-0.062078323
186	0x3d380c22	0.044933446
187	0xbd6b9f61	-0.057525042
188	0x3d6e0046	0.05810573
189	0xbc9cd00e	-0.019142177
190	0xbd60f411	-0.05492026
191	0xbc3b0da4	-0.011416826
192	0x3d6dbaae	0.05803936
193	0x3c057440	0.008145392
194	0xbd1c7a87	-0.03820279
195	0xbba7cd6c	-0.0051209237
196	0xbcdb63ab	-0.026780924
197	0x3d5ef211	0.05443007
198	0x3d3c3e84	0.045958057
199	0xbd0f8d10	-0.035046637
200	0x3d650050	0.0559085
201	0x3cc3328e	0.023827817
202	0x3b787c80	0.0037916005
203	0xbd132568	-0.035924345
204	0x3d62586e	0.055260114
205	0xbd36722e	-0.044542484
206	0xbc87cc1b	-0.016576817
207	0x3da43333	0.08017578
208	0xbd996489	-0.07489879
209	0x3d207fae	0.039184265
210	0xbd2ec6a8	-0.042669922
211	0x3d8e8787	0.069594435
212	0xbd80d717	-0.06291025
213	0x3aee9b3e	0.0018204225
214	0xbcc6b4d0	-0.02425614
215	0xbc7bad15	-0.01536109
216	0x3d79c642	0.06098009
217	0x3d4a36b3	0.04936857
218	0x3d1ecb39	0.038768027
219	0x3c6a96df	0.014318197
220	0xbc239159	-0.009983384
221	0x3d439e64	0.047758475
222	0xbd8a6e6a	-0.06759341
223	0x3d5f8362	0.054568656
224	0x3bb39bf6	0.0054812385
225	0xbd98f991	-0.07469476
226	0xbcdd6e84	-0.027030237
227	0x3d430f2e	0.0476219
228	0xbb6f68ef	-0.003653105
229	0xbd37e8be	-0.044899695
230	0xbc6b0144	-0.0143435635
231	0xbd2b9a52	-0.04189522
232	0xbd19f46b	-0.03758661
233	0xba534fd0	-0.0008060904
234	0x3d89657b	0.06708809
235	0x3ca949c3	0.020665055
236	0xbd80bdde	-0.06286214
237	0xbcbf2a05	-0.023335466
238	0x3db3b098	0.08773917
239	0x3d4bbb79	0.049739335
240	0x3d1017dd	0.035179008
241	0xbd76f7c0	-0.060294867
242	0xbc4322b8	-0.011910133
243	0x3d450c06	0.04810717
244	0x3d46c935	0.04853173
245	0x3d1eddbf	0.038785692
246	0x3ce223ca	0.027604956
247	0xbd80e663	-0.06293943
248	0x3a224b5a	0.0006191038
249	0xbd9bcbc0	-0.076072216
250	0xbcc7f5ac	-0.024409138
251	0xbd8a9607	-0.06766897
252	0xbcc90ea7	-0.02454312
253	0x3d3299eb	0.04360382
254	0xbd65bb89	-0.05608705
255	0xbc6624dd	-0.014046875

StatefulPartitionedCall/sequential_1/dense_1/BiasAdd/ReadVariableOp:0 f4 [64]
0	0x3c8ed07a	0.017433394
1	0x00000000	0.0
2	0xbbadbbed	-0.0053019435
3	0xbbff8bfe	-0.007798671
4	0x3c359448	0.011082716
5	0xbc0273f7	-0.0079622185
6	0xbbb61d8b	-0.005557721
7	0x3c909fb3	0.017654276
8	0x3c906ffc	0.017631523
9	0x3c902411	0.017595323
10	0x3c83fe4f	0.016112475
11	0x3c8ef50a	0.017450828
12	0x3c90a9d2	0.017659102
13	0x3c8f630e	0.017503288
14	0xbbced9bd	-0.0063125775
15	0x3c8fd0ee	0.01755568
16	0xbbb46a2a	-0.00550582
17	0xbbadb5ef	-0.005301229
18	0x3c92084e	0.017826226
19	0x3c910c0e	0.017705943
20	0x00000000	0.0
21	0x3c939d69	0.018019395
22	0x3c9193b4	0.017770626
23	0x3c92fe0f	0.01794341
24	0x3c97191c	0.01844459
25	0x3c8f64cd	0.01750412
26	0x3c8eaf55	0.01741759
27	0x3c9060a2	0.017624203
28	0x3c8d8182	0.017273668
29	0x00000000	0.0
30	0xbc3b93b6	-0.011448791
31	0xbbc45753	-0.005991855
32	0xbbdb7dc9	-0.0066983444
33	0xbc20bf47	-0.009811229
34	0x3c8e2ba7	0.0173548
35	0x00000000	0.0
36	0xbbadbd87	-0.0053021344
37	0x3c8f558e	0.01749685
38	0x3c8e6294	0.01738099
39	0x3c1f4a1c	0.009722259
40	0x3c9326cf	0.017962841
41	0xbc01c966	-0.007921552
42	0x3c939367	0.018014623
43	0xbbf66d90	-0.007520385
44	0xbbdd0e5a	-0.0067460956
45	0x3c94c0e2	0.01815838
46	0x3c8fce0a	0.017554302
47	0xbbe7b024	-0.007070558
48	0xbbd67411	-0.006544598
49	0xbc0e9c04	-0.008704189
50	0x3c90d51b	0.017679742
51	0xbbec6de3	-0.007215248
52	0x3c8ea229	0.017411308
53	0x3c8ed85b	0.01743715
54	0xbbf5627a	-0.007488546
55	0x00000000	0.0
56	0xbc27a972	-0.01023327
57	0xbc0aa096	-0.008461138
58	0x00000000	0.0
59	0xbc01bc60	-0.007918447
60	0x3c9496bf	0.018138288
61	0xbc244dd6	-0.010028323
62	0xbc1e44f7	-0.009659997
63	0xbb789fee	-0.0037937122

StatefulPartitionedCall/sequential_1/conv2d_1_2/convolution/ReadVariableOp:0 f4 [32, 16, 3, 3]
0	0xbd9bcf8d	-0.076079465
1	0x3da22e0c	0.07918939
2	0x3cd9bafe	0.026578423
3	0x3dad9549	0.084757395
4	0x3c372011	0.011177079
5	0xbdc72c07	-0.097251944
6	0xbd5d2185	-0.053987045
7	0x3db5d13d	0.088778
8	0xbdc2267b	-0.09479996
9	0x3d33f844	0.043937936
10	0x3a95ceee	0.0011429468
11	0x3b9d0ae4	0.004792558
12	0xbc912399	-0.01771717
13	0xbbe0ed17	-0.006864201
14	0xbc5e63c4	-0.013573591
15	0x3d372d15	0.044720728
16	0x3cae69d2	0.021290693
17	0xbd17d8ec	-0.037072107
18	0x3d8c41c4	0.06848481
19	0x3da74d3f	0.081690304
20	0x3c301e56	0.01074942
21	0x3d91c9dc	0.0711858
22	0x3daf5464	0.08561018
23	0x3dec6929	0.11543495
24	0x3d8d0fc4	0.06887773
25	0xbd428a38	-0.047495097
26	0x3c2d8004	0.010589603
27	0x3baeab9a	0.005330515
28	0xbdc7db43	-0.09758618
29	0x3dca300b	0.09872445
30	0x3db71787	0.08940034
31	0x3d2d9abb	0.04238389
32	0xbd8be6ad	-0.06831107
33	0xbcf61f5c	-0.03004425
34	0x3dc39027	0.09548979
35	0xbd1b433b	-0.037905913
36	0x3e0c3fb1	0.13696171
37	0x3d5fc33a	0.054629542
38	0x3df1da28	0.11809188
39	0x3cab23d6	0.020891111
40	0x3d98073e	0.07423256
41	0x3e05dfc0	0.13073635
42	0xbd0084c3	-0.03137661
43	0x3c05da18	0.008169673
44	0x3d92b266	0.07162933
45	0x3db8afd1	0.09017909
46	0xbd4ff2ed	-0.05076878
47	0x3d7b143c	0.061298594
48	0xbd890b95	-0.06691662
49	0xbd1cf1f9	-0.0383167
50	0xbdaa0eb5	-0.083035864
51	0xbdb2620b	-0.087101065
52	0x3db91974	0.09038058
53	0xbd8d3dfe	-0.0689659
54	0x3de52cb0	0.11190164
55	0x3dee63bd	0.11640117
56	0x3d64e858	0.055885643
57	0x3bc93021	0.0061397706
58	0xbd42c94b	-0.04755525
59	0x3d52ad71	0.051434938
60	0x3da45b24	0.08025196
61	0x3db48ca8	0.088158906
62	0xbd379284	-0.044817463
63	0x3d79ec9b	0.06101666
64	0xbd91df09	-0.07122619
65	0x3ca8ab05	0.020589361
66	0xbd9e6665	-0.07734374
67	0xbd547b5f	-0.05187547
68	0x3cdd51e0	0.02701658
69	0xbd9a8e29	-0.07546646
70	0xbd0885fe	-0.03333091
71	0x3d3cc921	0.04609025
72	0x3ceb69b5	0.028736928
73	0xbbf90e2b	-0.007600566
74	0xbde5af9c	-0.112151355
75	0x3c980948	0.018559113
76	0xbbc7b2c6	-0.0060943095
77	0x3c5a45af	0.013322278
78	0xbdce9923	-0.10087802
79	0xbdcdba05	-0.10045246
80	0x3df6c71a	0.12049694
81	0xbd6988e9	-0.057015333
82	0xbdc49c78	-0.096001565
83	0x3d4b6f31	0.049666587
84	0xbd78021e	-0.060548894
85	0x3d1c6214	0.038179472
86	0x3d800825	0.062515534
87	0x3db9730f	0.09055149
88	0x3cafcda2	0.021460358
89	0xbd9c9404	-0.07645419
90	0xbdcee05f	-0.10101389
91	0xbb58a018	-0.0033054408
92	0xbb60801b	-0.0034256044
93	0xbba6c182	-0.005088986
94	0xbccfdc70	-0.025373667
95	0x3d5ffc62	0.05468405
96	0x3cc8ca21	0.024510445
97	0xbcc1fa18	-0.023678824
98	0x3d4ae5c0	0.049535513
99	0x3d7f2cb0	0.062298477
100	0x3d93dbd7	0.072196655
101	0x3d9b6750	0.07588065
102	0xbca9d341	-0.020730617
103	0x3de0ba01	0.109729774
104	0xbd50fda3	-0.051023137
105	0x3dc340e3	0.095338605
106	0x3dd79d63	0.10528066
107	0x3d75b90c	0.059990928
108	0xbd906d3a	-0.07052083
109	0x3cce7671	0.025202962
110	0x3da874a5	0.08225373
111	0x3dcff7f9	0.10154719
112	0x3d5bb866	0.053642653
113	0xbd3a5e57	-0.045500126
114	0xbd918d85	-0.07107071
115	0x3d7cae1b	0.061689477
116	0xbd16450d	-0.036686946
117	0xbdbbbe76	-0.09167187
118	0xbda853fc	-0.08219144
119	0x3d970753	0.07374444
120	0x3b95f153	0.004575887
121	0x3dc6e9b0	0.09712541
122	0x3cc5c179	0.024140107
123	0x3dc4da68	0.0961197
124	0x3dc609ce	0.09669839
125	0x3dc64c61	0.09682537
126	0x3d6d81fc	0.05798529
127	0x3dd98cc7	0.10622554
128	0xbd12a73d	-0.035804022
129	0xbcaadb4f	-0.020856528
130	0xbd422c91	-0.047405783
131	0x3dfac778	0.12245077
132	0x3d1b4976	0.037911855
133	0xbdb0cbde	-0.086326346
134	0x3d8fa70d	0.07014284
135	0xbd186a89	-0.037210975
136	0x3d5864b0	0.052830398
137	0x3d15d0ae	0.036575966
138	0x3d8fe12f	0.07025372
139	0x3dc350ce	0.09536897
140	0xbd51944f	-0.05116683
141	0x3d49c334	0.049258426
142	0x3dbc0c83	0.09182074
143	0xbccee561	-0.02525586
144	0x3d0d99ed	0.034570623
145	0x3d88d1a4	0.06680611
146	0x3b52afc4	0.0032148222
147	0x3cfd2331	0.03090057
148	0xbc3dd613	-0.011586684
149	0x3da5fe8d	0.08105192
150	0x3d6d2360	0.057895064
151	0x3da43cb7	0.08019393
152	0x3db5618b	0.088564955
153	0x3cb96871	0.02263281
154	0xbd60f7c2	-0.05492378
155	0xbd64457e	-0.055730335
156	0x3d837061	0.06417919
157	0x3d30723b	0.04307769
158	0x3dbca546	0.09211211
159	0xbdab62f5	-0.08368484
160	0x3dc6bc66	0.09703903
161	0xbbf1ddef	-0.007381193
162	0xbcd27dec	-0.02569481
163	0x3d595319	0.053057764
164	0xbdbf5678	-0.093426645
165	0x3da83f10	0.08215153
166	0xbcd2fc85	-0.025755176
167	0x3d6189e4	0.055063143
168	0x3d035eaf	0.03207272
169	0xbba3b984	-0.0049964804
170	0x3d887618	0.066631496
171	0x3d0ab573	0.03386445
172	0x3d95722b	0.072971664
173	0xbda33bfd	-0.07970426
174	0x3cc1ddde	0.023665365
175	0x3d2b4cc8	0.04182127
176	0xbdb5d5ff	-0.08878707
177	0x3d24252d	0.040074516
178	0x3cd108de	0.025516924
179	0x3d53bc44	0.051693216
180	0x3c0b3499	0.008496427
181	0x3cfc8d5c	0.030829124
182	0xbd962947	-0.07332092
183	0xbdda4d89	-0.1065932
184	0xbd89e7af	-0.06733643
185	0x3d8e70b2	0.06955089
186	0xbdaa9c1b	-0.08330556
187	0x3d48de0e	0.049039893
188	0xbc84517d	-0.016152138
189	0x3d608753	0.054816555
190	0x3d4988b4	0.049202636
191	0x3b785f1a	0.0037898482
192	0x3d8a3a34	0.067493826
193	0x3dd65510	0.10465443
194	0x3da5d9e3	0.08098199
195	0x3dc33bcd	0.095328905
196	0x3cabbf3b	0.02096521
197	0xbd11d4c1	-0.03560329
198	0x3d2b73a8	0.041858345
199	0xbdb5c9e3	-0.088763975
200	0xbd27d289	-0.040972266
201	0xbcc371c5	-0.02385796
202	0xbddf2882	-0.10896398
203	0x3cdd675a	0.02702682
204	0x3db9dda5	0.090754785
205	0x3d9ee1a3	0.077578805
206	0x3cb8cfb7	0.022559984
207	0x3d4ec324	0.05047907
208	0x3d65cd65	0.056104083
209	0xb95c561c	-0.00021012913
210	0x3d54b0dc	0.05192648
211	0xbdb53ff2	-0.08850087
212	0x3e065e0e	0.13121817
213	0xbb9c5f29	-0.004772086
214	0xbb030684	-0.0019992897
215	0x3d29da1d	0.041467775
216	0x3dceeff9	0.10104365
217	0x3c66f181	0.014095665
218	0x3d916efd	0.071012475
219	0xbda30b92	-0.07961191
220	0x3cc01d94	0.023451604
221	0x3ceb1e08	0.028700843
222	0xbd841c0a	-0.064506605
223	0x3b4a7ebe	0.0030898298
224	0xbc87ae36	-0.016562562
225	0xbdd4c5e3	-0.103893064
226	0x3dcb6170	0.09930694
227	0xbdcd418d	-0.100222684
228	0xbd66d7c4	-0.056358114
229	0x3d3929fc	0.045206055
230	0xbd7f98ac	-0.06240146
231	0x3d87b268	0.06625825
232	0x3da5e5aa	0.081004456
233	0x3d902786	0.070387885
234	0x3d8b9def	0.06817233
235	0xbdab286f	-0.083573215
236	0xbd87df31	-0.06634367
237	0xbda8f669	-0.08250124
238	0x3db6c8e2	0.08925034
239	0x3d7233a0	0.059131265
240	0xbcd9ed6b	-0.026602468
241	0xbc88d847	-0.016704692
242	0xbdb66f8b	-0.08907994
243	0xbd592670	-0.053015172
244	0xbc84e71a	-0.016223479
245	0xbd4b9ed4	-0.049712017
246	0x3df3be80	0.11901569
247	0x3daad94f	0.083422296
248	0xbd9ef4ed	-0.0776156
249	0xbdab7e82	-0.08373739
250	0x3d8a8234	0.067631155
251	0x3da8e5c7	0.082469516
252	0xbcd7c418	-0.026338622
253	0x3de2bed8	0.11071557
254	0xbcfcf522	-0.030878607
255	0x3cf3898e	0.029728677

StatefulPartitionedCall/sequential_1/conv2d_1_2/Squeeze:0 f4 [32]
0	0x3c99c3e9	0.018770175
1	0x3c998dc5	0.018744359
2	0x00000000	0.0
3	0x3c9dfe19	0.019286202
4	0x3c617d71	0.013762818
5	0x3c3bc737	0.011461071
6	0x3c9d5bd9	0.019208835
7	0x3c979168	0.018501952
8	0x3c28ceb1	0.010303185
9	0x3c9ab98f	0.01888731
10	0x3c9f78a4	0.019466706
11	0x3c4e4008	0.012588508
12	0xbc648ef0	-0.013950095
13	0x3c6bd2e4	0.014393542
14	0x3c9b7249	0.018975394
15	0x3babc43e	0.0052418998
16	0x00000000	0.0
17	0x3c9e9e2a	0.019362528
18	0x3c99b912	0.018765006
19	0x3c6b3d4b	0.014357875
20	0x3c9a1d11	0.018812688
21	0x3c8323fa	0.016008366
22	0x3c0cb82b	0.008588831
23	0x3c9a2564	0.018816657
24	0x3c5085e7	0.012727237
25	0x3c9b7dbf	0.018980859
26	0x3c9e0fa5	0.01929457
27	0x3c22a1a5	0.009926234
28	0x3b521602	0.0032056575
29	0x3c38262f	0.011239572
30	0xbbe93ef6	-0.007118101
31	0x3c572da1	0.013133437

StatefulPartitionedCall/sequential_1/conv2d_1/convolution/ReadVariableOp:0 f4 [16, 1, 3, 3]
0	0x3dc2f131	0.0951866
1	0x3d851e07	0.06499868
2	0x3d8c547c	0.068520516
3	0xbdcba2d6	-0.09943168
4	0x3daa86c9	0.083264895
5	0x3ce5cd05	0.028051862
6	0x3dd8c3c3	0.105842136
7	0xbdc7372e	-0.097273216
8	0x3d7e4f66	0.06208744
9	0x3e4197cb	0.1890556
10	0xbcc2c721	-0.023776593
11	0x3e1ea982	0.1549435
12	0xbd5731df	-0.052537795
13	0x3e0aff32	0.13573912
14	0xbdc3300e	-0.0953065
15	0x3e2e0218	0.16992986
16	0xbd393239	-0.04521391
17	0xbe16d49b	-0.1472954
18	0x3e4fb776	0.20284829
19	0xbcedc665	-0.029025266
20	0x3de5d762	0.11222722
21	0xbe013c2b	-0.12620609
22	0x3d49c746	0.049262308
23	0x3e5a105a	0.212953
24	0x3e2bcfc7	0.1677848
25	0x3d91c8f3	0.07118406
26	0x3d8251b1	0.06363238
27	0xbc5a3679	-0.013318651
28	0xbe090130	-0.13379359
29	0xbe4d3dd5	-0.20043118
30	0x3c8790e8	0.016548589
31	0x3e4ab676	0.19796166
32	0xbd7b80d1	-0.061402146
33	0x3d9ab014	0.075531155
34	0x3e2823bd	0.16419883
35	0x3b3d86fd	0.002891957
36	0x3dd6a8df	0.10481428
37	0x3d97e091	0.074158795
38	0xbd5771cf	-0.05259877
39	0xbd987974	-0.0744504
40	0x3e3926d4	0.18081218
41	0x3e4284a1	0.18995906
42	0x3df39592	0.11893763
43	0x3e4e4e83	0.20147137
44	0x3e52e345	0.20594509
45	0x3dd6568c	0.10465726
46	0x3d16971b	0.0367652
47	0x3dd0bc80	0.101922035
48	0xbd2ab1f4	-0.041673616
49	0xbe1db681	-0.15401651
50	0xbd8cd070	-0.06875694
51	0x3e0610a3	0.13092284
52	0x3d025ef1	0.031828824
53	0x3d680bde	0.056651942
54	0xbe1d10ca	-0.15338436
55	0xbd85c72e	-0.06532131
56	0x3b9c09ec	0.004761925
57	0x3d039d42	0.032132395
58	0xbe158505	-0.14601524
59	0xbdaed059	-0.08535833
60	0xbd3db364	-0.04631366
61	0xbd5365e1	-0.05161083
62	0xbda6933f	-0.08133554
63	0x3e06269e	0.13100669
64	0xbd8469ba	-0.06465478
65	0x3df1d357	0.11807888
66	0xbc83eed9	-0.016105102
67	0xbdf4cc2c	-0.11953005
68	0x3dfe435e	0.12415193
69	0x3df4a217	0.11944979
70	0xbe314004	-0.17309576
71	0x3d5a9e1f	0.053373452
72	0xbe2e6d24	-0.17033821
73	0x3d720ffd	0.05909728
74	0xbe2179bc	-0.15769094
75	0xbdfbb407	-0.12290197
76	0xbe48055d	-0.19533296
77	0x3dbb1bd5	0.09136168
78	0xbdf2595e	-0.11833452
79	0xbe146585	-0.14491852
80	0x3e250a0d	0.16117115
81	0x3c9a835f	0.01886147
82	0x3e4c1fb9	0.19933976
83	0x3e4ffb0b	0.20310609
84	0xbe060d63	-0.13091044
85	0x3d5a089c	0.053230867
86	0x3e58b4a9	0.21162666
87	0x3e44e547	0.19228087
88	0x3e29c918	0.16580617
89	0xbe0787e0	-0.13235426
90	0x3db131c2	0.08652069
91	0x3de8ed02	0.11373331
92	0xbe2cebd7	-0.16886841
93	0x3e3cfe2f	0.18456338
94	0xbd9194b7	-0.07108443
95	0xbe3a8132	-0.18213347
96	0xbdca4e11	-0.09878171
97	0x3dc65c60	0.09685588
98	0xbe1796ec	-0.14803666
99	0xbdadfab7	-0.08495086
100	0x3e01c65c	0.12673324
101	0xbe1a3ec8	-0.15063012
102	0x3cdf8217	0.027283711
103	0x3d92400b	0.071411215
104	0xbe11ae3c	-0.14226621
105	0xbe0c8188	-0.13721287
106	0x3d5b7bf4	0.053585008
107	0x3e471474	0.19441396
108	0x3e2139a3	0.15744643
109	0x3e2d4ec4	0.16924578
110	0x3bb31973	0.0054656803
111	0x3e3fa55d	0.18715425
112	0xbe0752b4	-0.13215142
113	0x3db18692	0.086682454
114	0xbd6ab6b1	-0.057303134
115	0x3e2aa0b8	0.16662872
116	0xbd061214	-0.032732084
117	0x3e039292	0.12848881
118	0xbe0916a6	-0.13387546
119	0x3e2bdaa2	0.1678262
120	0x3e032f86	0.12811098
121	0xbddb1158	-0.106966674
122	0x3dcdeb5f	0.10054659
123	0x3e3ac5a3	0.18239455
124	0x3d91525d	0.07095788
125	0x3e022ce0	0.12712431
126	0xbdbd0bb7	-0.0923075
127	0xbe14218c	-0.14465922
128	0x3e387b1e	0.18015715
129	0x3e0a7e28	0.13524687
130	0x3e02ce67	0.12774049
131	0x3e3c0ade	0.1836352
132	0x3e5dad17	0.2164806
133	0x3e18055c	0.14845794
134	0x3d659d98	0.056058496
135	0xbd0ca0ad	-0.03433292
136	0xbdec6c45	-0.11544088
137	0x3d8df1b6	0.06930868
138	0x3da9fe9f	0.08300518
139	0xbe2ede51	-0.17076994
140	0x3ddffc9f	0.109368555
141	0x3e232aaf	0.15934251
142	0x3d557aec	0.05211918
143	0x3d86679d	0.065627314

StatefulPartitionedCall/sequential_1/conv2d_1/Squeeze:0 f4 [16]
0	0x3c9ed773	0.019389844
1	0x3c59656a	0.013268808
2	0x3c9b99c8	0.018994227
3	0xbb7465d8	-0.003729215
4	0x3c45081c	0.012025859
5	0x3c807576	0.01568101
6	0x3c1cc596	0.0095685925
7	0x3c31af41	0.010845006
8	0xbad7c444	-0.001646169
9	0x3ca12b71	0.019674035
10	0x3c606221	0.013695271
11	0x3c9df0df	0.019279895
12	0x3c9dd74b	0.019267699
13	0x3bacd0fb	0.005273936
14	0x3b8b7b3b	0.0042566336
15	0xbc0b5f6d	-0.008506638
